ir_version: 2
producer_name: "pytorch"
producer_version: "0.3"
graph {
  node {
    output: "9"
    op_type: "Constant"
    attribute {
      name: "value"
      t {
        dims: 2
        dims: 3
        dims: 20
        data_type: FLOAT
        raw_data: "…"
      }
      type: TENSOR
    }
  }
  node {
    output: "10"
    op_type: "Constant"
    attribute {
      name: "value"
      t {
        dims: 3
        data_type: INT32
        raw_data: "\005\000\000\000\005\000\000\000\005\000\000\000"
      }
      type: TENSOR
    }
  }
  node {
    input: "1"
    output: "11"
    op_type: "Slice"
    attribute {
      name: "axes"
      ints: 0
      type: INTS
    }
    attribute {
      name: "ends"
      ints: 20
      type: INTS
    }
    attribute {
      name: "starts"
      ints: 0
      type: INTS
    }
  }
  node {
    input: "1"
    output: "12"
    op_type: "Slice"
    attribute {
      name: "axes"
      ints: 0
      type: INTS
    }
    attribute {
      name: "ends"
      ints: 80
      type: INTS
    }
    attribute {
      name: "starts"
      ints: 60
      type: INTS
    }
  }
  node {
    input: "1"
    output: "13"
    op_type: "Slice"
    attribute {
      name: "axes"
      ints: 0
      type: INTS
    }
    attribute {
      name: "ends"
      ints: 60
      type: INTS
    }
    attribute {
      name: "starts"
      ints: 20
      type: INTS
    }
  }
  node {
    input: "11"
    input: "12"
    input: "13"
    output: "14"
    op_type: "Concat"
    attribute {
      name: "axis"
      i: 0
      type: INT
    }
  }
  node {
    input: "2"
    output: "15"
    op_type: "Slice"
    attribute {
      name: "axes"
      ints: 0
      type: INTS
    }
    attribute {
      name: "ends"
      ints: 20
      type: INTS
    }
    attribute {
      name: "starts"
      ints: 0
      type: INTS
    }
  }
  node {
    input: "2"
    output: "16"
    op_type: "Slice"
    attribute {
      name: "axes"
      ints: 0
      type: INTS
    }
    attribute {
      name: "ends"
      ints: 80
      type: INTS
    }
    attribute {
      name: "starts"
      ints: 60
      type: INTS
    }
  }
  node {
    input: "2"
    output: "17"
    op_type: "Slice"
    attribute {
      name: "axes"
      ints: 0
      type: INTS
    }
    attribute {
      name: "ends"
      ints: 60
      type: INTS
    }
    attribute {
      name: "starts"
      ints: 20
      type: INTS
    }
  }
  node {
    input: "15"
    input: "16"
    input: "17"
    output: "18"
    op_type: "Concat"
    attribute {
      name: "axis"
      i: 0
      type: INT
    }
  }
  node {
    input: "3"
    output: "19"
    op_type: "Slice"
    attribute {
      name: "axes"
      ints: 0
      type: INTS
    }
    attribute {
      name: "ends"
      ints: 20
      type: INTS
    }
    attribute {
      name: "starts"
      ints: 0
      type: INTS
    }
  }
  node {
    input: "3"
    output: "20"
    op_type: "Slice"
    attribute {
      name: "axes"
      ints: 0
      type: INTS
    }
    attribute {
      name: "ends"
      ints: 80
      type: INTS
    }
    attribute {
      name: "starts"
      ints: 60
      type: INTS
    }
  }
  node {
    input: "3"
    output: "21"
    op_type: "Slice"
    attribute {
      name: "axes"
      ints: 0
      type: INTS
    }
    attribute {
      name: "ends"
      ints: 60
      type: INTS
    }
    attribute {
      name: "starts"
      ints: 20
      type: INTS
    }
  }
  node {
    input: "19"
    input: "20"
    input: "21"
    output: "22"
    op_type: "Concat"
    attribute {
      name: "axis"
      i: 0
      type: INT
    }
  }
  node {
    input: "4"
    output: "23"
    op_type: "Slice"
    attribute {
      name: "axes"
      ints: 0
      type: INTS
    }
    attribute {
      name: "ends"
      ints: 20
      type: INTS
    }
    attribute {
      name: "starts"
      ints: 0
      type: INTS
    }
  }
  node {
    input: "4"
    output: "24"
    op_type: "Slice"
    attribute {
      name: "axes"
      ints: 0
      type: INTS
    }
    attribute {
      name: "ends"
      ints: 80
      type: INTS
    }
    attribute {
      name: "starts"
      ints: 60
      type: INTS
    }
  }
  node {
    input: "4"
    output: "25"
    op_type: "Slice"
    attribute {
      name: "axes"
      ints: 0
      type: INTS
    }
    attribute {
      name: "ends"
      ints: 60
      type: INTS
    }
    attribute {
      name: "starts"
      ints: 20
      type: INTS
    }
  }
  node {
    input: "23"
    input: "24"
    input: "25"
    output: "26"
    op_type: "Concat"
    attribute {
      name: "axis"
      i: 0
      type: INT
    }
  }
  node {
    input: "22"
    input: "26"
    output: "27"
    op_type: "Concat"
    attribute {
      name: "axis"
      i: 0
      type: INT
    }
  }
  node {
    input: "9"
    output: "28"
    op_type: "Slice"
    attribute {
      name: "axes"
      ints: 0
      type: INTS
    }
    attribute {
      name: "ends"
      ints: 1
      type: INTS
    }
    attribute {
      name: "starts"
      ints: 0
      type: INTS
    }
  }
  node {
    input: "9"
    output: "29"
    op_type: "Slice"
    attribute {
      name: "axes"
      ints: 0
      type: INTS
    }
    attribute {
      name: "ends"
      ints: 1
      type: INTS
    }
    attribute {
      name: "starts"
      ints: 0
      type: INTS
    }
  }
  node {
    input: "0"
    input: "14"
    input: "18"
    input: "27"
    input: "10"
    input: "28"
    input: "29"
    output: "30"
    output: "31"
    op_type: "LSTM"
    attribute {
      name: "hidden_size"
      i: 20
      type: INT
    }
  }
  node {
    input: "5"
    output: "32"
    op_type: "Slice"
    attribute {
      name: "axes"
      ints: 0
      type: INTS
    }
    attribute {
      name: "ends"
      ints: 20
      type: INTS
    }
    attribute {
      name: "starts"
      ints: 0
      type: INTS
    }
  }
  node {
    input: "5"
    output: "33"
    op_type: "Slice"
    attribute {
      name: "axes"
      ints: 0
      type: INTS
    }
    attribute {
      name: "ends"
      ints: 80
      type: INTS
    }
    attribute {
      name: "starts"
      ints: 60
      type: INTS
    }
  }
  node {
    input: "5"
    output: "34"
    op_type: "Slice"
    attribute {
      name: "axes"
      ints: 0
      type: INTS
    }
    attribute {
      name: "ends"
      ints: 60
      type: INTS
    }
    attribute {
      name: "starts"
      ints: 20
      type: INTS
    }
  }
  node {
    input: "32"
    input: "33"
    input: "34"
    output: "35"
    op_type: "Concat"
    attribute {
      name: "axis"
      i: 0
      type: INT
    }
  }
  node {
    input: "6"
    output: "36"
    op_type: "Slice"
    attribute {
      name: "axes"
      ints: 0
      type: INTS
    }
    attribute {
      name: "ends"
      ints: 20
      type: INTS
    }
    attribute {
      name: "starts"
      ints: 0
      type: INTS
    }
  }
  node {
    input: "6"
    output: "37"
    op_type: "Slice"
    attribute {
      name: "axes"
      ints: 0
      type: INTS
    }
    attribute {
      name: "ends"
      ints: 80
      type: INTS
    }
    attribute {
      name: "starts"
      ints: 60
      type: INTS
    }
  }
  node {
    input: "6"
    output: "38"
    op_type: "Slice"
    attribute {
      name: "axes"
      ints: 0
      type: INTS
    }
    attribute {
      name: "ends"
      ints: 60
      type: INTS
    }
    attribute {
      name: "starts"
      ints: 20
      type: INTS
    }
  }
  node {
    input: "36"
    input: "37"
    input: "38"
    output: "39"
    op_type: "Concat"
    attribute {
      name: "axis"
      i: 0
      type: INT
    }
  }
  node {
    input: "7"
    output: "40"
    op_type: "Slice"
    attribute {
      name: "axes"
      ints: 0
      type: INTS
    }
    attribute {
      name: "ends"
      ints: 20
      type: INTS
    }
    attribute {
      name: "starts"
      ints: 0
      type: INTS
    }
  }
  node {
    input: "7"
    output: "41"
    op_type: "Slice"
    attribute {
      name: "axes"
      ints: 0
      type: INTS
    }
    attribute {
      name: "ends"
      ints: 80
      type: INTS
    }
    attribute {
      name: "starts"
      ints: 60
      type: INTS
    }
  }
  node {
    input: "7"
    output: "42"
    op_type: "Slice"
    attribute {
      name: "axes"
      ints: 0
      type: INTS
    }
    attribute {
      name: "ends"
      ints: 60
      type: INTS
    }
    attribute {
      name: "starts"
      ints: 20
      type: INTS
    }
  }
  node {
    input: "40"
    input: "41"
    input: "42"
    output: "43"
    op_type: "Concat"
    attribute {
      name: "axis"
      i: 0
      type: INT
    }
  }
  node {
    input: "8"
    output: "44"
    op_type: "Slice"
    attribute {
      name: "axes"
      ints: 0
      type: INTS
    }
    attribute {
      name: "ends"
      ints: 20
      type: INTS
    }
    attribute {
      name: "starts"
      ints: 0
      type: INTS
    }
  }
  node {
    input: "8"
    output: "45"
    op_type: "Slice"
    attribute {
      name: "axes"
      ints: 0
      type: INTS
    }
    attribute {
      name: "ends"
      ints: 80
      type: INTS
    }
    attribute {
      name: "starts"
      ints: 60
      type: INTS
    }
  }
  node {
    input: "8"
    output: "46"
    op_type: "Slice"
    attribute {
      name: "axes"
      ints: 0
      type: INTS
    }
    attribute {
      name: "ends"
      ints: 60
      type: INTS
    }
    attribute {
      name: "starts"
      ints: 20
      type: INTS
    }
  }
  node {
    input: "44"
    input: "45"
    input: "46"
    output: "47"
    op_type: "Concat"
    attribute {
      name: "axis"
      i: 0
      type: INT
    }
  }
  node {
    input: "43"
    input: "47"
    output: "48"
    op_type: "Concat"
    attribute {
      name: "axis"
      i: 0
      type: INT
    }
  }
  node {
    input: "9"
    output: "49"
    op_type: "Slice"
    attribute {
      name: "axes"
      ints: 0
      type: INTS
    }
    attribute {
      name: "ends"
      ints: 2
      type: INTS
    }
    attribute {
      name: "starts"
      ints: 1
      type: INTS
    }
  }
  node {
    input: "9"
    output: "50"
    op_type: "Slice"
    attribute {
      name: "axes"
      ints: 0
      type: INTS
    }
    attribute {
      name: "ends"
      ints: 2
      type: INTS
    }
    attribute {
      name: "starts"
      ints: 1
      type: INTS
    }
  }
  node {
    input: "30"
    input: "35"
    input: "39"
    input: "48"
    input: "10"
    input: "49"
    input: "50"
    output: "51"
    output: "52"
    op_type: "LSTM"
    attribute {
      name: "hidden_size"
      i: 20
      type: INT
    }
  }
  node {
    input: "31"
    input: "52"
    output: "53"
    op_type: "Concat"
    attribute {
      name: "axis"
      i: 0
      type: INT
    }
  }
  name: "torch-jit-export"
  initializer {
    dims: 80
    dims: 10
    data_type: FLOAT
    name: "1"
    raw_data: "…"
  }
  initializer {
    dims: 80
    dims: 20
    data_type: FLOAT
    name: "2"
    raw_data: "…"
  }
  initializer {
    dims: 80
    data_type: FLOAT
    name: "3"
    raw_data: "…"
  }
  initializer {
    dims: 80
    data_type: FLOAT
    name: "4"
    raw_data: "…"
  }
  initializer {
    dims: 80
    dims: 20
    data_type: FLOAT
    name: "5"
    raw_data: "…"
  }
  initializer {
    dims: 80
    dims: 20
    data_type: FLOAT
    name: "6"
    raw_data: "…"
  }
  initializer {
    dims: 80
    data_type: FLOAT
    name: "7"
    raw_data: "…"
  }
  initializer {
    dims: 80
    data_type: FLOAT
    name: "8"
    raw_data: "…"
  }
  input {
    name: "0"
    type {
      tensor_type {
        elem_type: FLOAT
        shape {
          dim {
            dim_value: 5
          }
          dim {
            dim_value: 3
          }
          dim {
            dim_value: 10
          }
        }
      }
    }
  }
  input {
    name: "1"
    type {
      tensor_type {
        elem_type: FLOAT
        shape {
          dim {
            dim_value: 80
          }
          dim {
            dim_value: 10
          }
        }
      }
    }
  }
  input {
    name: "2"
    type {
      tensor_type {
        elem_type: FLOAT
        shape {
          dim {
            dim_value: 80
          }
          dim {
            dim_value: 20
          }
        }
      }
    }
  }
  input {
    name: "3"
    type {
      tensor_type {
        elem_type: FLOAT
        shape {
          dim {
            dim_value: 80
          }
        }
      }
    }
  }
  input {
    name: "4"
    type {
      tensor_type {
        elem_type: FLOAT
        shape {
          dim {
            dim_value: 80
          }
        }
      }
    }
  }
  input {
    name: "5"
    type {
      tensor_type {
        elem_type: FLOAT
        shape {
          dim {
            dim_value: 80
          }
          dim {
            dim_value: 20
          }
        }
      }
    }
  }
  input {
    name: "6"
    type {
      tensor_type {
        elem_type: FLOAT
        shape {
          dim {
            dim_value: 80
          }
          dim {
            dim_value: 20
          }
        }
      }
    }
  }
  input {
    name: "7"
    type {
      tensor_type {
        elem_type: FLOAT
        shape {
          dim {
            dim_value: 80
          }
        }
      }
    }
  }
  input {
    name: "8"
    type {
      tensor_type {
        elem_type: FLOAT
        shape {
          dim {
            dim_value: 80
          }
        }
      }
    }
  }
  output {
    name: "51"
    type {
      tensor_type {
        elem_type: FLOAT
        shape {
          dim {
            dim_value: 5
          }
          dim {
            dim_value: 3
          }
          dim {
            dim_value: 20
          }
        }
      }
    }
  }
  output {
    name: "53"
    type {
      tensor_type {
        elem_type: FLOAT
        shape {
          dim {
            dim_value: 2
          }
          dim {
            dim_value: 3
          }
          dim {
            dim_value: 20
          }
        }
      }
    }
  }
}
opset_import {
  version: 2
}
